…
          "base_uri": "https://localhost:8080/"
        },
        "id": "XJx-COChyxJk",
        "outputId": "fe0d4d6e-24e0-4b83-a085-52b8ec4c2be6"
      },
      "execution_count": 15,
      "outputs": [
        {
          "output_type": "stream",
          "name": "stdout",
          "text": [
            "Model: \"sequential\"\n",
            "_________________________________________________________________\n",
            " Layer (type)                Output Shape              Param #   \n",
            "=================================================================\n",
            " conv2d (Conv2D)             (None, 222, 222, 32)      896       \n",
            "                                                                 \n",
            " max_pooling2d (MaxPooling2D  (None, 111, 111, 32)     0         \n",
            " )                                                               \n",
            "                                                                 \n",
            " conv2d_1 (Conv2D)           (None, 109, 109, 32)      9248      \n",
            "                                                                 \n",
            " max_pooling2d_1 (MaxPooling  (None, 54, 54, 32)       0         \n",
            " 2D)                                                             \n",
            "                                                                 \n",
            " conv2d_2 (Conv2D)           (None, 52, 52, 64)        18496     \n",
            "                                                                 \n",
            " max_pooling2d_2 (MaxPooling  (None, 26, 26, 64)       0         \n",
            " 2D)                                                             \n",
            "                                                                 \n",
            " conv2d_3 (Conv2D)           (None, 24, 24, 64)        36928     \n",
            "                                                                 \n",
            " max_pooling2d_3 (MaxPooling  (None, 12, 12, 64)       0         \n",
            " 2D)                                                             \n",
            "                                                                 \n",
            " flatten (Flatten)           (None, 9216)              0         \n",
            "                                                                 \n",
            " dropout (Dropout)           (None, 9216)              0         \n",
            "                                                                 \n",
            " dense (Dense)               (None, 512)               4719104   \n",
            "                                                                 \n",
            " dense_1 (Dense)             (None, 256)               131328    \n",
            "                                                                 \n",
            " dense_2 (Dense)             (None, 4)                 1028      \n",
            "                                                                 \n",
            "=================================================================\n",
            "Total params: 4,917,028\n",
            "Trainable params: 4,917,028\n",
            "Non-trainable params: 0\n",
            "_________________________________________________________________\n"
          ]
        }
…
        "colab": {
          "base_uri": "https://localhost:8080/"
        },
        "outputId": "3fa803f8-ca8e-4b15-c1e5-bb38a7de0b5b"
      },
      "execution_count": 14,
      "outputs": [
        {
          "output_type": "stream",
          "name": "stdout",
          "text": [
            "Model: \"sequential\"\n",
            "_________________________________________________________________\n",
            " Layer (type)                Output Shape              Param #   \n",
            "=================================================================\n",
            " conv2d (Conv2D)             (None, 222, 222, 32)      896       \n",
            "                                                                 \n",
            " max_pooling2d (MaxPooling2D  (None, 111, 111, 32)     0         \n",
            " )                                                               \n",
            "                                                                 \n",
            " conv2d_1 (Conv2D)           (None, 109, 109, 64)      18496     \n",
            "                                                                 \n",
            " max_pooling2d_1 (MaxPooling  (None, 54, 54, 64)       0         \n",
            " 2D)                                                             \n",
            "                                                                 \n",
            " conv2d_2 (Conv2D)           (None, 52, 52, 64)        36928     \n",
            "                                                                 \n",
            " max_pooling2d_2 (MaxPooling  (None, 26, 26, 64)       0         \n",
            " 2D)                                                             \n",
            "                                                                 \n",
            " conv2d_3 (Conv2D)           (None, 24, 24, 64)        36928     \n",
            "                                                                 \n",
            " max_pooling2d_3 (MaxPooling  (None, 12, 12, 64)       0         \n",
            " 2D)                                                             \n",
            "                                                                 \n",
            " conv2d_4 (Conv2D)           (None, 10, 10, 64)        36928     \n",
            "                                                                 \n",
            " max_pooling2d_4 (MaxPooling  (None, 5, 5, 64)         0         \n",
            " 2D)                                                             \n",
            "                                                                 \n",
            " conv2d_5 (Conv2D)           (None, 3, 3, 64)          36928     \n",
            "                                                                 \n",
            " max_pooling2d_5 (MaxPooling  (None, 1, 1, 64)         0         \n",
            " 2D)                                                             \n",
            "                                                                 \n",
            " flatten (Flatten)           (None, 64)                0         \n",
            "                                                                 \n",
            " dense (Dense)               (None, 64)                4160      \n",
            "                                                                 \n",
            " dense_1 (Dense)             (None, 4)                 260       \n",
            "                                                                 \n",
            "=================================================================\n",
            "Total params: 171,524\n",
            "Trainable params: 171,524\n",
            "Non-trainable params: 0\n",
            "_________________________________________________________________\n"
          ]
        }
…
